…
se are the parameters from the “YOLOv2” model, but we will more simply refer to it as “YOLO” in this notebook.) Run the cell below to load the model from this file. 1yolo_model = load_model("model_data/yolo.h5") This loads the weights of a trained YOLO model. Here’s a summary of the layers your model contains. 1yolo_model.summary() __________________________________________________________________________________________________ Layer (type) Output Shape Param # Connected to ================================================================================================== input_1 (InputLayer) (None, 608, 608, 3) 0 __________________________________________________________________________________________________ conv2d_1 (Conv2D) (None, 608, 608, 32) 864 input_1[0][0] __________________________________________________________________________________________________ batch_normalization_1 (BatchNor (None, 608, 608, 32) 128 conv2d_1[0][0] __________________________________________________________________________________________________ leaky_re_lu_1 (LeakyReLU) (None, 608, 608, 32) 0 batch_normalization_1[0][0] __________________________________________________________________________________________________ max_pooling2d_1 (MaxPooling2D) (None, 304, 304, 32) 0 leaky_re_lu_1[0][0] __________________________________________________________________________________________________ conv2d_2 (Conv2D) (None, 304, 304, 64) 18432 max_pooling2d_1[0][0] __________________________________________________________________________________________________ batch_normalization_2 (BatchNor (None, 304, 304, 64) 256 conv2d_2[0][0] __________________________________________________________________________________________________ leaky_re_lu_2 (LeakyReLU) (None, 304, 304, 64) 0 batch_normalization_2[0][0] __________________________________________________________________________________________________ max_pooling2d_2 (MaxPooling2D) (None, 152, 152, 64) 0 leaky_re_lu_2[0][0] __________________________________________________________________________________________________ conv2d_3 (Conv2D) (None, 152, 152, 128 73728 max_pooling2d_2[0][0] __________________________________________________________________________________________________ batch_normalization_3 (BatchNor (None, 152, 152, 128 512 conv2d_3[0][0] __________________________________________________________________________________________________ leaky_re_lu_3 (LeakyReLU) (None, 152, 152, 128 0 batch_normalization_3[0][0] __________________________________________________________________________________________________ conv2d_4 (Conv2D) (None, 152, 152, 64) 8192 leaky_re_lu_3[0][0] __________________________________________________________________________________________________ batch_normalization_4 (BatchNor (None, 152, 152, 64) 256 conv2d_4[0][0] __________________________________________________________________________________________________ leaky_re_lu_4 (LeakyReLU) (None, 152, 152, 64) 0 batch_normalization_4[0][0] __________________________________________________________________________________________________ conv2d_5 (Conv2D) (None, 152, 152, 128 73728 leaky_re_lu_4[0][0] __________________________________________________________________________________________________ batch_normalization_5 (BatchNor (None, 152, 152, 128 512 conv2d_5[0][0] __________________________________________________________________________________________________ leaky_re_lu_5 (LeakyReLU) (None, 152, 152, 128 0 batch_normalization_5[0][0] __________________________________________________________________________________________________ max_pooling2d_3 (MaxPooling2D) (None, 76, 76, 128) 0 leaky_re_lu_5[0][0] __________________________________________________________________________________________________ conv2d_6 (Conv2D) (None, 76, 76, 256) 294912 max_pooling2d_3[0][0] __________________________________________________________________________________________________ batch_normalization_6 (BatchNor (None, 76, 76, 256) 1024 conv2d_6[0][0] __________________________________________________________________________________________________ leaky_re_lu_6 (LeakyReLU) (None, 76, 76, 256) 0 batch_normalization_6[0][0] __________________________________________________________________________________________________ conv2d_7 (Conv2D) (None, 76, 76, 128) 32768 leaky_re_lu_6[0][0] __________________________________________________________________________________________________ batch_normalization_7 (BatchNor (None, 76, 76, 128) 512 conv2d_7[0][0] __________________________________________________________________________________________________ leaky_re_lu_7 (LeakyReLU) (None, 76, 76, 128) 0 batch_normalization_7[0][0] __________________________________________________________________________________________________ conv2d_8 (Conv2D) (None, 76, 76, 256) 294912 leaky_re_lu_7[0][0] __________________________________________________________________________________________________ batch_normalization_8 (BatchNor (None, 76, 76, 256) 1024 conv2d_8[0][0] __________________________________________________________________________________________________ leaky_re_lu_8 (LeakyReLU) (None, 76, 76, 256) 0 batch_normalization_8[0][0] __________________________________________________________________________________________________ max_pooling2d_4 (MaxPooling2D) (None, 38, 38, 256) 0 leaky_re_lu_8[0][0] __________________________________________________________________________________________________ conv2d_9 (Conv2D) (None, 38, 38, 512) 1179648 max_pooling2d_4[0][0] __________________________________________________________________________________________________ batch_normalization_9 (BatchNor (None, 38, 38, 512) 2048 conv2d_9[0][0] __________________________________________________________________________________________________ leaky_re_lu_9 (LeakyReLU) (None, 38, 38, 512) 0 batch_normalization_9[0][0] __________________________________________________________________________________________________ conv2d_10 (Conv2D) (None, 38, 38, 256) 131072 leaky_re_lu_9[0][0] __________________________________________________________________________________________________ batch_normalization_10 (BatchNo (None, 38, 38, 256) 1024 conv2d_10[0][0] __________________________________________________________________________________________________ leaky_re_lu_10 (LeakyReLU) (None, 38, 38, 256) 0 batch_normalization_10[0][0] __________________________________________________________________________________________________ conv2d_11 (Conv2D) (None, 38, 38, 512) 1179648 leaky_re_lu_10[0][0] __________________________________________________________________________________________________ batch_normalization_11 (BatchNo (None, 38, 38, 512) 2048 conv2d_11[0][0] __________________________________________________________________________________________________ leaky_re_lu_11 (LeakyReLU) (None, 38, 38, 512) 0 batch_normalization_11[0][0] __________________________________________________________________________________________________ conv2d_12 (Conv2D) (None, 38, 38, 256) 131072 leaky_re_lu_11[0][0] __________________________________________________________________________________________________ batch_normalization_12 (BatchNo (None, 38, 38, 256) 1024 conv2d_12[0][0] __________________________________________________________________________________________________ leaky_re_lu_12 (LeakyReLU) (None, 38, 38, 256) 0 batch_normalization_12[0][0] __________________________________________________________________________________________________ conv2d_13 (Conv2D) (None, 38, 38, 512) 1179648 leaky_re_lu_12[0][0] __________________________________________________________________________________________________ batch_normalization_13 (BatchNo (None, 38, 38, 512) 2048 conv2d_13[0][0] __________________________________________________________________________________________________ leaky_re_lu_13 (LeakyReLU) (None, 38, 38, 512) 0 batch_normalization_13[0][0] __________________________________________________________________________________________________ max_pooling2d_5 (MaxPooling2D) (None, 19, 19, 512) 0 leaky_re_lu_13[0][0] __________________________________________________________________________________________________ conv2d_14 (Conv2D) (None, 19, 19, 1024) 4718592 max_pooling2d_5[0][0] __________________________________________________________________________________________________ batch_normalization_14 (BatchNo (None, 19, 19, 1024) 4096 conv2d_14[0][0] __________________________________________________________________________________________________ leaky_re_lu_14 (LeakyReLU) (None, 19, 19, 1024) 0 batch_normalization_14[0][0] __________________________________________________________________________________________________ conv2d_15 (Conv2D) (None, 19, 19, 512) 524288 leaky_re_lu_14[0][0] __________________________________________________________________________________________________ batch_normalization_15 (BatchNo (None, 19, 19, 512) 2048 conv2d_15[0][0] __________________________________________________________________________________________________ leaky_re_lu_15 (LeakyReLU) (None, 19, 19, 512) 0 batch_normalization_15[0][0] __________________________________________________________________________________________________ conv2d_16 (Conv2D) (None, 19, 19, 1024) 4718592 leaky_re_lu_15[0][0] __________________________________________________________________________________________________ batch_normalization_16 (BatchNo (None, 19, 19, 1024) 4096 conv2d_16[0][0] __________________________________________________________________________________________________ leaky_re_lu_16 (LeakyReLU) (None, 19, 19, 1024) 0 batch_normalization_16[0][0] __________________________________________________________________________________________________ conv2d_17 (Conv2D) (None, 19, 19, 512) 524288 leaky_re_lu_16[0][0] __________________________________________________________________________________________________ batch_normalization_17 (BatchNo (None, 19, 19, 512) 2048 conv2d_17[0][0] __________________________________________________________________________________________________ leaky_re_lu_17 (LeakyReLU) (None, 19, 19, 512) 0 batch_normalization_17[0][0] __________________________________________________________________________________________________ conv2d_18 (Conv2D) (None, 19, 19, 1024) 4718592 leaky_re_lu_17[0][0] __________________________________________________________________________________________________ batch_normalization_18 (BatchNo (None, 19, 19, 1024) 4096 conv2d_18[0][0] __________________________________________________________________________________________________ leaky_re_lu_18 (LeakyReLU) (None, 19, 19, 1024) 0 batch_normalization_18[0][0] __________________________________________________________________________________________________ conv2d_19 (Conv2D) (None, 19, 19, 1024) 9437184 leaky_re_lu_18[0][0] __________________________________________________________________________________________________ batch_normalization_19 (BatchNo (None, 19, 19, 1024) 4096 conv2d_19[0][0] __________________________________________________________________________________________________ conv2d_21 (Conv2D) (None, 38, 38, 64) 32768 leaky_re_lu_13[0][0] __________________________________________________________________________________________________ leaky_re_lu_19 (LeakyReLU) (None, 19, 19, 1024) 0 batch_normalization_19[0][0] __________________________________________________________________________________________________ batch_normalization_21 (BatchNo (None, 38, 38, 64) 256 conv2d_21[0][0] __________________________________________________________________________________________________ conv2d_20 (Conv2D) (None, 19, 19, 1024) 9437184 leaky_re_lu_19[0][0] __________________________________________________________________________________________________ leaky_re_lu_21 (LeakyReLU) (None, 38, 38, 64) 0 batch_normalization_21[0][0] __________________________________________________________________________________________________ batch_normalization_20 (BatchNo (None, 19, 19, 1024) 4096 conv2d_20[0][0] __________________________________________________________________________________________________ space_to_depth_x2 (Lambda) (None, 19, 19, 256) 0 leaky_re_lu_21[0][0] __________________________________________________________________________________________________ leaky_re_lu_20 (LeakyReLU) (None, 19, 19, 1024) 0 batch_normalization_20[0][0] __________________________________________________________________________________________________ concatenate_1 (Concatenate) (None, 19, 19, 1280) 0 space_to_depth_x2[0][0] leaky_re_lu_20[0][0] __________________________________________________________________________________________________ conv2d_22 (Conv2D) (None, 19, 19, 1024) 11796480 concatenate_1[0][0] __________________________________________________________________________________________________ batch_normalization_22 (BatchNo (None, 19, 19, 1024) 4096 conv2d_22[0][0] __________________________________________________________________________________________________ leaky_re_lu_22 (LeakyReLU) (None, 19, 19, 1024) 0 batch_normalization_22[0][0] __________________________________________________________________________________________________ conv2d_23 (Conv2D) (None, 19, 19, 425) 435625 leaky_re_lu_22[0][0] ================================================================================================== Total params: 50,983,561 Trainable params: 50,962,889 Non-trainable params: 20,672 __________________________________________________________________________________________________ Note: On some computers, you may see a warning message from Keras. Don’t worry about it if you do
…
d(img_path)imshow(my_image)print("class prediction vector [p(0), p(1), p(2), p(3), p(4), p(5)] = ")print(model.predict(x)) Input image shape: (1, 64, 64, 3) class prediction vector [p(0), p(1), p(2), p(3), p(4), p(5)] = [[ 0. 0. 0. 0. 1. 0.]] You can also print a summary of your model by running the following code. 1model.summary() __________________________________________________________________________________________________ Layer (type) Output Shape Param # Connected to ================================================================================================== input_1 (InputLayer) (None, 64, 64, 3) 0 __________________________________________________________________________________________________ zero_padding2d_1 (ZeroPadding2D (None, 70, 70, 3) 0 input_1[0][0] __________________________________________________________________________________________________ conv1 (Conv2D) (None, 32, 32, 64) 9472 zero_padding2d_1[0][0] __________________________________________________________________________________________________ bn_conv1 (BatchNormalization) (None, 32, 32, 64) 256 conv1[0][0] __________________________________________________________________________________________________ activation_4 (Activation) (None, 32, 32, 64) 0 bn_conv1[0][0] __________________________________________________________________________________________________ max_pooling2d_1 (MaxPooling2D) (None, 15, 15, 64) 0 activation_4[0][0] __________________________________________________________________________________________________ res2a_branch2a (Conv2D) (None, 15, 15, 64) 4160 max_pooling2d_1[0][0] __________________________________________________________________________________________________ bn2a_branch2a (BatchNormalizati (None, 15, 15, 64) 256 res2a_branch2a[0][0] __________________________________________________________________________________________________ activation_5 (Activation) (None, 15, 15, 64) 0 bn2a_branch2a[0][0] __________________________________________________________________________________________________ res2a_branch2b (Conv2D) (None, 15, 15, 64) 36928 activation_5[0][0] __________________________________________________________________________________________________ bn2a_branch2b (BatchNormalizati (None, 15, 15, 64) 256 res2a_branch2b[0][0] __________________________________________________________________________________________________ activation_6 (Activation) (None, 15, 15, 64) 0 bn2a_branch2b[0][0] __________________________________________________________________________________________________ res2a_branch2c (Conv2D) (None, 15, 15, 256) 16640 activation_6[0][0] __________________________________________________________________________________________________ res2a_branch1 (Conv2D) (None, 15, 15, 256) 16640 max_pooling2d_1[0][0] __________________________________________________________________________________________________ bn2a_branch2c (BatchNormalizati (None, 15, 15, 256) 1024 res2a_branch2c[0][0] __________________________________________________________________________________________________ bn2a_branch1 (BatchNormalizatio (None, 15, 15, 256) 1024 res2a_branch1[0][0] __________________________________________________________________________________________________ add_2 (Add) (None, 15, 15, 256) 0 bn2a_branch2c[0][0] bn2a_branch1[0][0] __________________________________________________________________________________________________ activation_7 (Activation) (None, 15, 15, 256) 0 add_2[0][0] __________________________________________________________________________________________________ res2b_branch2a (Conv2D) (None, 15, 15, 64) 16448 activation_7[0][0] __________________________________________________________________________________________________ bn2b_branch2a (BatchNormalizati (None, 15, 15, 64) 256 res2b_branch2a[0][0] __________________________________________________________________________________________________ activation_8 (Activation) (None, 15, 15, 64) 0 bn2b_branch2a[0][0] __________________________________________________________________________________________________ res2b_branch2b (Conv2D) (None, 15, 15, 64) 36928 activation_8[0][0] __________________________________________________________________________________________________ bn2b_branch2b (BatchNormalizati (None, 15, 15, 64) 256 res2b_branch2b[0][0] __________________________________________________________________________________________________ activation_9 (Activation) (None, 15, 15, 64) 0 bn2b_branch2b[0][0] __________________________________________________________________________________________________ res2b_branch2c (Conv2D) (None, 15, 15, 256) 16640 activation_9[0][0] __________________________________________________________________________________________________ bn2b_branch2c (BatchNormalizati (None, 15, 15, 256) 1024 res2b_branch2c[0][0] __________________________________________________________________________________________________ add_3 (Add) (None, 15, 15, 256) 0 bn2b_branch2c[0][0] activation_7[0][0] __________________________________________________________________________________________________ activation_10 (Activation) (None, 15, 15, 256) 0 add_3[0][0] __________________________________________________________________________________________________ res2c_branch2a (Conv2D) (None, 15, 15, 64) 16448 activation_10[0][0] __________________________________________________________________________________________________ bn2c_branch2a (BatchNormalizati (None, 15, 15, 64) 256 res2c_branch2a[0][0] __________________________________________________________________________________________________ activation_11 (Activation) (None, 15, 15, 64) 0 bn2c_branch2a[0][0] __________________________________________________________________________________________________ res2c_branch2b (Conv2D) (None, 15, 15, 64) 36928 activation_11[0][0] __________________________________________________________________________________________________ bn2c_branch2b (BatchNormalizati (None, 15, 15, 64) 256 res2c_branch2b[0][0] __________________________________________________________________________________________________ activation_12 (Activation) (None, 15, 15, 64) 0 bn2c_branch2b[0][0] __________________________________________________________________________________________________ res2c_branch2c (Conv2D) (None, 15, 15, 256) 16640 activation_12[0][0] __________________________________________________________________________________________________ bn2c_branch2c (BatchNormalizati (None, 15, 15, 256) 1024 res2c_branch2c[0][0] __________________________________________________________________________________________________ add_4 (Add) (None, 15, 15, 256) 0 bn2c_branch2c[0][0] activation_10[0][0] __________________________________________________________________________________________________ activation_13 (Activation) (None, 15, 15, 256) 0 add_4[0][0] __________________________________________________________________________________________________ res3a_branch2a (Conv2D) (None, 8, 8, 128) 32896 activation_13[0][0] __________________________________________________________________________________________________ bn3a_branch2a (BatchNormalizati (None, 8, 8, 128) 512 res3a_branch2a[0][0] __________________________________________________________________________________________________ activation_14 (Activation) (None, 8, 8, 128) 0 bn3a_branch2a[0][0] __________________________________________________________________________________________________ res3a_branch2b (Conv2D) (None, 8, 8, 128) 147584 activation_14[0][0] __________________________________________________________________________________________________ bn3a_branch2b (BatchNormalizati (None, 8, 8, 128) 512 res3a_branch2b[0][0] __________________________________________________________________________________________________ activation_15 (Activation) (None, 8, 8, 128) 0 bn3a_branch2b[0][0] __________________________________________________________________________________________________ res3a_branch2c (Conv2D) (None, 8, 8, 512) 66048 activation_15[0][0] __________________________________________________________________________________________________ res3a_branch1 (Conv2D) (None, 8, 8, 512) 131584 activation_13[0][0] __________________________________________________________________________________________________ bn3a_branch2c (BatchNormalizati (None, 8, 8, 512) 2048 res3a_branch2c[0][0] __________________________________________________________________________________________________ bn3a_branch1 (BatchNormalizatio (None, 8, 8, 512) 2048 res3a_branch1[0][0] __________________________________________________________________________________________________ add_5 (Add) (None, 8, 8, 512) 0 bn3a_branch2c[0][0] bn3a_branch1[0][0] __________________________________________________________________________________________________ activation_16 (Activation) (None, 8, 8, 512) 0 add_5[0][0] __________________________________________________________________________________________________ res3b_branch2a (Conv2D) (None, 8, 8, 128) 65664 activation_16[0][0] __________________________________________________________________________________________________ bn3b_branch2a (BatchNormalizati (None, 8, 8, 128) 512 res3b_branch2a[0][0] __________________________________________________________________________________________________ activation_17 (Activation) (None, 8, 8, 128) 0 bn3b_branch2a[0][0] __________________________________________________________________________________________________ res3b_branch2b (Conv2D) (None, 8, 8, 128) 147584 activation_17[0][0] __________________________________________________________________________________________________ bn3b_branch2b (BatchNormalizati (None, 8, 8, 128) 512 res3b_branch2b[0][0] __________________________________________________________________________________________________ activation_18 (Activation) (None, 8, 8, 128) 0 bn3b_branch2b[0][0] __________________________________________________________________________________________________ res3b_branch2c (Conv2D) (None, 8, 8, 512) 66048 activation_18[0][0] __________________________________________________________________________________________________ bn3b_branch2c (BatchNormalizati (None, 8, 8, 512) 2048 res3b_branch2c[0][0] __________________________________________________________________________________________________ add_6 (Add) (None, 8, 8, 512) 0 bn3b_branch2c[0][0] activation_16[0][0] __________________________________________________________________________________________________ activation_19 (Activation) (None, 8, 8, 512) 0 add_6[0][0] __________________________________________________________________________________________________ res3c_branch2a (Conv2D) (None, 8, 8, 128) 65664 activation_19[0][0] __________________________________________________________________________________________________ bn3c_branch2a (BatchNormalizati (None, 8, 8, 128) 512 res3c_branch2a[0][0] __________________________________________________________________________________________________ activation_20 (Activation) (None, 8, 8, 128) 0 bn3c_branch2a[0][0] __________________________________________________________________________________________________ res3c_branch2b (Conv2D) (None, 8, 8, 128) 147584 activation_20[0][0] __________________________________________________________________________________________________ bn3c_branch2b (BatchNormalizati (None, 8, 8, 128) 512 res3c_branch2b[0][0] __________________________________________________________________________________________________ activation_21 (Activation) (None, 8, 8, 128) 0 bn3c_branch2b[0][0] __________________________________________________________________________________________________ res3c_branch2c (Conv2D) (None, 8, 8, 512) 66048 activation_21[0][0] __________________________________________________________________________________________________ bn3c_branch2c (BatchNormalizati (None, 8, 8, 512) 2048 res3c_branch2c[0][0] __________________________________________________________________________________________________ add_7 (Add) (None, 8, 8, 512) 0 bn3c_branch2c[0][0] activation_19[0][0] __________________________________________________________________________________________________ activation_22 (Activation) (None, 8, 8, 512) 0 add_7[0][0] __________________________________________________________________________________________________ res3d_branch2a (Conv2D) (None, 8, 8, 128) 65664 activation_22[0][0] __________________________________________________________________________________________________ bn3d_branch2a (BatchNormalizati (None, 8, 8, 128) 512 res3d_branch2a[0][0] __________________________________________________________________________________________________ activation_23 (Activation) (None, 8, 8, 128) 0 bn3d_branch2a[0][0] __________________________________________________________________________________________________ res3d_branch2b (Conv2D) (None, 8, 8, 128) 147584 activation_23[0][0] __________________________________________________________________________________________________ bn3d_branch2b (BatchNormalizati (None, 8, 8, 128) 512 res3d_branch2b[0][0] __________________________________________________________________________________________________ activation_24 (Activation) (None, 8, 8, 128) 0 bn3d_branch2b[0][0] __________________________________________________________________________________________________ res3d_branch2c (Conv2D) (None, 8, 8, 512) 66048 activation_24[0][0] __________________________________________________________________________________________________ bn3d_branch2c (BatchNormalizati (None, 8, 8, 512) 2048 res3d_branch2c[0][0] __________________________________________________________________________________________________ add_8 (Add) (None, 8, 8, 512) 0 bn3d_branch2c[0][0] activation_22[0][0] __________________________________________________________________________________________________ activation_25 (Activation) (None, 8, 8, 512) 0 add_8[0][0] __________________________________________________________________________________________________ res4a_branch2a (Conv2D) (None, 4, 4, 256) 131328 activation_25[0][0] __________________________________________________________________________________________________ bn4a_branch2a (BatchNormalizati (None, 4, 4, 256) 1024 res4a_branch2a[0][0] __________________________________________________________________________________________________ activation_26 (Activation) (None, 4, 4, 256) 0 bn4a_branch2a[0][0] __________________________________________________________________________________________________ res4a_branch2b (Conv2D) (None, 4, 4, 256) 590080 activation_26[0][0] __________________________________________________________________________________________________ bn4a_branch2b (BatchNormalizati (None, 4, 4, 256) 1024 res4a_branch2b[0][0] __________________________________________________________________________________________________ activation_27 (Activation) (None, 4, 4, 256) 0 bn4a_branch2b[0][0] __________________________________________________________________________________________________ res4a_branch2c (Conv2D) (None, 4, 4, 1024) 263168 activation_27[0][0] __________________________________________________________________________________________________ res4a_branch1 (Conv2D) (None, 4, 4, 1024) 525312 activation_25[0][0] __________________________________________________________________________________________________ bn4a_branch2c (BatchNormalizati (None, 4, 4, 1024) 4096 res4a_branch2c[0][0] __________________________________________________________________________________________________ bn4a_branch1 (BatchNormalizatio (None, 4, 4, 1024) 4096 res4a_branch1[0][0] __________________________________________________________________________________________________ add_9 (Add) (None, 4, 4, 1024) 0 bn4a_branch2c[0][0] bn4a_branch1[0][0] __________________________________________________________________________________________________ activation_28 (Activation) (None, 4, 4, 1024) 0 add_9[0][0] __________________________________________________________________________________________________ res4b_branch2a (Conv2D) (None, 4, 4, 256) 262400 activation_28[0][0] __________________________________________________________________________________________________ bn4b_branch2a (BatchNormalizati (None, 4, 4, 256) 1024 res4b_branch2a[0][0] __________________________________________________________________________________________________ activation_29 (Activation) (None, 4, 4, 256) 0 bn4b_branch2a[0][0] __________________________________________________________________________________________________ res4b_branch2b (Conv2D) (None, 4, 4, 256) 590080 activation_29[0][0] __________________________________________________________________________________________________ bn4b_branch2b (BatchNormalizati (None, 4, 4, 256) 1024 res4b_branch2b[0][0] __________________________________________________________________________________________________ activation_30 (Activation) (None, 4, 4, 256) 0 bn4b_branch2b[0][0] __________________________________________________________________________________________________ res4b_branch2c (Conv2D) (None, 4, 4, 1024) 263168 activation_30[0][0] __________________________________________________________________________________________________ bn4b_branch2c (BatchNormalizati (None, 4, 4, 1024) 4096 res4b_branch2c[0][0] __________________________________________________________________________________________________ add_10 (Add) (None, 4, 4, 1024) 0 bn4b_branch2c[0][0] activation_28[0][0] __________________________________________________________________________________________________ activation_31 (Activation) (None, 4, 4, 1024) 0 add_10[0][0] __________________________________________________________________________________________________ res4c_branch2a (Conv2D) (None, 4, 4, 256) 262400 activation_31[0][0] __________________________________________________________________________________________________ bn4c_branch2a (BatchNormalizati (None, 4, 4, 256) 1024 res4c_branch2a[0][0] __________________________________________________________________________________________________ activation_32 (Activation) (None, 4, 4, 256) 0 bn4c_branch2a[0][0] __________________________________________________________________________________________________ res4c_branch2b (Conv2D) (None, 4, 4, 256) 590080 activation_32[0][0] __________________________________________________________________________________________________ bn4c_branch2b (BatchNormalizati (None, 4, 4, 256) 1024 res4c_branch2b[0][0] __________________________________________________________________________________________________ activation_33 (Activation) (None, 4, 4, 256) 0 bn4c_branch2b[0][0] __________________________________________________________________________________________________ res4c_branch2c (Conv2D) (None, 4, 4, 1024) 263168 activation_33[0][0] __________________________________________________________________________________________________ bn4c_branch2c (BatchNormalizati (None, 4, 4, 1024) 4096 res4c_branch2c[0][0] __________________________________________________________________________________________________ add_11 (Add) (None, 4, 4, 1024) 0 bn4c_branch2c[0][0] activation_31[0][0] __________________________________________________________________________________________________ activation_34 (Activation) (None, 4, 4, 1024) 0 add_11[0][0] __________________________________________________________________________________________________ res4d_branch2a (Conv2D) (None, 4, 4, 256) 262400 activation_34[0][0] __________________________________________________________________________________________________ bn4d_branch2a (BatchNormalizati (None, 4, 4, 256) 1024 res4d_branch2a[0][0] __________________________________________________________________________________________________ activation_35 (Activation) (None, 4, 4, 256) 0 bn4d_branch2a[0][0] __________________________________________________________________________________________________ res4d_branch2b (Conv2D) (None, 4, 4, 256) 590080 activation_35[0][0] __________________________________________________________________________________________________ bn4d_branch2b (BatchNormalizati (None, 4, 4, 256) 1024 res4d_branch2b[0][0] __________________________________________________________________________________________________ activation_36 (Activation) (None, 4, 4, 256) 0 bn4d_branch2b[0][0] __________________________________________________________________________________________________ res4d_branch2c (Conv2D) (None, 4, 4, 1024) 263168 activation_36[0][0] __________________________________________________________________________________________________ bn4d_branch2c (BatchNormalizati (None, 4, 4, 1024) 4096 res4d_branch2c[0][0] __________________________________________________________________________________________________ add_12 (Add) (None, 4, 4, 1024) 0 bn4d_branch2c[0][0] activation_34[0][0] __________________________________________________________________________________________________ activation_37 (Activation) (None, 4, 4, 1024) 0 add_12[0][0] __________________________________________________________________________________________________ res4e_branch2a (Conv2D) (None, 4, 4, 256) 262400 activation_37[0][0] __________________________________________________________________________________________________ bn4e_branch2a (BatchNormalizati (None, 4, 4, 256) 1024 res4e_branch2a[0][0] __________________________________________________________________________________________________ activation_38 (Activation) (None, 4, 4, 256) 0 bn4e_branch2a[0][0] __________________________________________________________________________________________________ res4e_branch2b (Conv2D) (None, 4, 4, 256) 590080 activation_38[0][0] __________________________________________________________________________________________________ bn4e_branch2b (BatchNormalizati (None, 4, 4, 256) 1024 res4e_branch2b[0][0] __________________________________________________________________________________________________ activation_39 (Activation) (None, 4, 4, 256) 0 bn4e_branch2b[0][0] __________________________________________________________________________________________________ res4e_branch2c (Conv2D) (None, 4, 4, 1024) 263168 activation_39[0][0] __________________________________________________________________________________________________ bn4e_branch2c (BatchNormalizati (None, 4, 4, 1024) 4096 res4e_branch2c[0][0] __________________________________________________________________________________________________ add_13 (Add) (None, 4, 4, 1024) 0 bn4e_branch2c[0][0] activation_37[0][0] __________________________________________________________________________________________________ activation_40 (Activation) (None, 4, 4, 1024) 0 add_13[0][0] __________________________________________________________________________________________________ res4f_branch2a (Conv2D) (None, 4, 4, 256) 262400 activation_40[0][0] __________________________________________________________________________________________________ bn4f_branch2a (BatchNormalizati (None, 4, 4, 256) 1024 res4f_branch2a[0][0] __________________________________________________________________________________________________ activation_41 (Activation) (None, 4, 4, 256) 0 bn4f_branch2a[0][0] __________________________________________________________________________________________________ res4f_branch2b (Conv2D) (None, 4, 4, 256) 590080 activation_41[0][0] __________________________________________________________________________________________________ bn4f_branch2b (BatchNormalizati (None, 4, 4, 256) 1024 res4f_branch2b[0][0] __________________________________________________________________________________________________ activation_42 (Activation) (None, 4, 4, 256) 0 bn4f_branch2b[0][0] __________________________________________________________________________________________________ res4f_branch2c (Conv2D) (None, 4, 4, 1024) 263168 activation_42[0][0] __________________________________________________________________________________________________ bn4f_branch2c (BatchNormalizati (None, 4, 4, 1024) 4096 res4f_branch2c[0][0] __________________________________________________________________________________________________ add_14 (Add) (None, 4, 4, 1024) 0 bn4f_branch2c[0][0] activation_40[0][0] __________________________________________________________________________________________________ activation_43 (Activation) (None, 4, 4, 1024) 0 add_14[0][0] __________________________________________________________________________________________________ res5a_branch2a (Conv2D) (None, 2, 2, 512) 524800 activation_43[0][0] __________________________________________________________________________________________________ bn5a_branch2a (BatchNormalizati (None, 2, 2, 512) 2048 res5a_branch2a[0][0] __________________________________________________________________________________________________ activation_44 (Activation) (None, 2, 2, 512) 0 bn5a_branch2a[0][0] __________________________________________________________________________________________________ res5a_branch2b (Conv2D) (None, 2, 2, 512) 2359808 activation_44[0][0] __________________________________________________________________________________________________ bn5a_branch2b (BatchNormalizati (None, 2, 2, 512) 2048 res5a_branch2b[0][0] __________________________________________________________________________________________________ activation_45 (Activation) (None, 2, 2, 512) 0 bn5a_branch2b[0][0] __________________________________________________________________________________________________ res5a_branch2c (Conv2D) (None, 2, 2, 2048) 1050624 activation_45[0][0] __________________________________________________________________________________________________ res5a_branch1 (Conv2D) (None, 2, 2, 2048) 2099200 activation_43[0][0] __________________________________________________________________________________________________ bn5a_branch2c (BatchNormalizati (None, 2, 2, 2048) 8192 res5a_branch2c[0][0] __________________________________________________________________________________________________ bn5a_branch1 (BatchNormalizatio (None, 2, 2, 2048) 8192 res5a_branch1[0][0] __________________________________________________________________________________________________ add_15 (Add) (None, 2, 2, 2048) 0 bn5a_branch2c[0][0] bn5a_branch1[0][0] __________________________________________________________________________________________________ activation_46 (Activation) (None, 2, 2, 2048) 0 add_15[0][0] __________________________________________________________________________________________________ res5b_branch2a (Conv2D) (None, 2, 2, 256) 524544 activation_46[0][0] __________________________________________________________________________________________________ bn5b_branch2a (BatchNormalizati (None, 2, 2, 256) 1024 res5b_branch2a[0][0] __________________________________________________________________________________________________ activation_47 (Activation) (None, 2, 2, 256) 0 bn5b_branch2a[0][0] __________________________________________________________________________________________________ res5b_branch2b (Conv2D) (None, 2, 2, 256) 590080 activation_47[0][0] __________________________________________________________________________________________________ bn5b_branch2b (BatchNormalizati (None, 2, 2, 256) 1024 res5b_branch2b[0][0] __________________________________________________________________________________________________ activation_48 (Activation) (None, 2, 2, 256) 0 bn5b_branch2b[0][0] __________________________________________________________________________________________________ res5b_branch2c (Conv2D) (None, 2, 2, 2048) 526336 activation_48[0][0] __________________________________________________________________________________________________ bn5b_branch2c (BatchNormalizati (None, 2, 2, 2048) 8192 res5b_branch2c[0][0] __________________________________________________________________________________________________ add_16 (Add) (None, 2, 2, 2048) 0 bn5b_branch2c[0][0] activation_46[0][0] __________________________________________________________________________________________________ activation_49 (Activation) (None, 2, 2, 2048) 0 add_16[0][0] __________________________________________________________________________________________________ res5c_branch2a (Conv2D) (None, 2, 2, 256) 524544 activation_49[0][0] __________________________________________________________________________________________________ bn5c_branch2a (BatchNormalizati (None, 2, 2, 256) 1024 res5c_branch2a[0][0] __________________________________________________________________________________________________ activation_50 (Activation) (None, 2, 2, 256) 0 bn5c_branch2a[0][0] __________________________________________________________________________________________________ res5c_branch2b (Conv2D) (None, 2, 2, 256) 590080 activation_50[0][0] __________________________________________________________________________________________________ bn5c_branch2b (BatchNormalizati (None, 2, 2, 256) 1024 res5c_branch2b[0][0] __________________________________________________________________________________________________ activation_51 (Activation) (None, 2, 2, 256) 0 bn5c_branch2b[0][0] __________________________________________________________________________________________________ res5c_branch2c (Conv2D) (None, 2, 2, 2048) 526336 activation_51[0][0] __________________________________________________________________________________________________ bn5c_branch2c (BatchNormalizati (None, 2, 2, 2048) 8192 res5c_branch2c[0][0] __________________________________________________________________________________________________ add_17 (Add) (None, 2, 2, 2048) 0 bn5c_branch2c[0][0] activation_49[0][0] __________________________________________________________________________________________________ activation_52 (Activation) (None, 2, 2, 2048) 0 add_17[0][0] __________________________________________________________________________________________________ average_pooling2d_1 (AveragePoo (None, 1, 1, 2048) 0 activation_52[0][0] __________________________________________________________________________________________________ flatten_1 (Flatten) (None, 2048) 0 average_pooling2d_1[0][0] __________________________________________________________________________________________________ fc6 (Dense) (None, 6) 12294 flatten_1[0][0] ================================================================================================== Total params: 17,958,790 Trainable params: 17,907,718 Non-trainable params: 51,072 __________________________________________________________________________________________________ Finally, run the code below to visualize your ResNet50. You can also download a .png picture of your m
…
o other basic features of Keras that you’ll find useful are: model.summary(): prints the details of your layers in a table with the sizes of its inputs/outputs plot_model(): plots your graph in a nice layout. You can even save it as “.png” using SVG() if you’d like to share it on social media ;). It is saved in “File” then “Open…” in the upper bar of the notebook. Run the following code. 1happyModel.summary() _________________________________________________________________ Layer (type) Output Shape Param # ================================================================= input_1 (InputLayer) (None, 64, 64, 3) 0 _________________________________________________________________ zero_padding2d_1 (ZeroPaddin (None, 66, 66, 3) 0 _________________________________________________________________ conv2d_1 (Conv2D) (None, 64, 64, 8) 224 _________________________________________________________________ batch_normalization_1 (Batch (None, 64, 64, 8) 32 _________________________________________________________________ activation_1 (Activation) (None, 64, 64, 8) 0 _________________________________________________________________ max_pooling2d_1 (MaxPooling2 (None, 32, 32, 8) 0 _________________________________________________________________ zero_padding2d_2 (ZeroPaddin (None, 34, 34, 8) 0 _________________________________________________________________ conv2d_2 (Conv2D) (None, 32, 32, 16) 1168 _________________________________________________________________ batch_normalization_2 (Batch (None, 32, 32, 16) 64 _________________________________________________________________ activation_2 (Activation) (None, 32, 32, 16) 0 _________________________________________________________________ max_pooling2d_2 (MaxPooling2 (None, 16, 16, 16) 0 _________________________________________________________________ zero_padding2d_3 (ZeroPaddin (None, 18, 18, 16) 0 _________________________________________________________________ conv2d_3 (Conv2D) (None, 16, 16, 32) 4640 _________________________________________________________________ batch_normalization_3 (Batch (None, 16, 16, 32) 128 _________________________________________________________________ activation_3 (Activation) (None, 16, 16, 32) 0 _________________________________________________________________ max_pooling2d_3 (MaxPooling2 (None, 8, 8, 32) 0 _________________________________________________________________ flatten_1 (Flatten) (None, 2048) 0 _________________________________________________________________ dense_1 (Dense) (None, 1) 2049 ================================================================= Total params: 8,305 Trainable params: 8,193 Non-trainable params: 112 _________________________________________________________________ 12plot_model(happyModel, to_file='HappyModel.png')SVG(model_to_dot(happyModel).create(prog='dot', format='svg'))]]></content>
      <categories>
        <category>Deep Learning</category>
      </categories>
…
